model.pth (torch, 105492 bytes, 7 tensors)

conv1.weight f4 [16, 1, 3, 3]
0	0x3e077e5b	0.13231795
1	0xbe797216	-0.24359927
2	0xbc923896	-0.017849248
3	0x3f56b264	0.8386595
4	0xbf2a30f5	-0.6648095
5	0x3c8e8ba1	0.017400565
6	0x3d81a916	0.06331079
7	0x3ea4eb6a	0.32210857
8	0x3de2a61b	0.11066838
9	0xbe71aff6	-0.2360228
10	0xbcf57cd6	-0.029966753
11	0x3e546ab8	0.20743835
12	0x3e5abb6b	0.21360557
13	0x3ec2bb9d	0.38033763
14	0x3afb53c8	0.0019174749
15	0x3e6c3cc3	0.23070054
16	0x3e87c3e7	0.2651665
17	0xbd9374e6	-0.07200031
18	0x3ea32376	0.31862992
19	0x3dc7cb86	0.09755616
20	0xbe1df7d3	-0.15426569
21	0x3de4417a	0.11145301
22	0x3e0e5d5a	0.13902798
23	0x3db0b22f	0.08627736
24	0x3e9d7d0c	0.30759466
25	0x3ca43180	0.020043135
26	0x3b8eb956	0.00435559
27	0x3dc19a36	0.094532415
28	0xbe8d9597	-0.2765319
29	0x3e06c2c6	0.13160238
30	0x3dbeb2ea	0.09311469
31	0x3f116c0d	0.568055
32	0xbd517458	-0.051136345
33	0x3e9025d0	0.2815385
34	0x3db6b2cb	0.08920821
35	0x3e0a3016	0.13494906
36	0xbe8ea887	-0.2786295
37	0x3d7f12b6	0.062273704
38	0xbdec3740	-0.115339756
39	0xbda974b1	-0.0827421
40	0xbeb9bfce	-0.36279148
41	0xbcf60de0	-0.030035913
42	0xbd7c5960	-0.061608672
43	0x3e84706c	0.2586702
44	0xbcfad456	-0.030618828
45	0x3d74c3d6	0.059757076
46	0x3e8a2fcb	0.26989588
47	0x3dbd9eeb	0.09258827
48	0xbe86860f	-0.26274154
49	0x3e3326ac	0.17495221
50	0x3eaa26d3	0.33232746
51	0x3e97f33b	0.29677758
52	0x3d24e50b	0.040257495
53	0x3e886d20	0.26645756
54	0xbe71cfe6	-0.23614463
55	0xbe71e2e3	-0.23621707
56	0x3df7eed0	0.12106097
57	0x3ad995f6	0.0016600478
58	0xbf739732	-0.9515258
59	0xbc74c099	-0.014938497
60	0x3dffc03b	0.12487837
61	0x3e67ded8	0.22643602
62	0x3e0a65d6	0.1351541
63	0x3e4deb2b	0.2010924
64	0xbd631a6b	-0.055445116
65	0xbe72e070	-0.23718429
66	0x3ce993ff	0.028512953
67	0x3cf96835	0.030445198
68	0xbdf86af6	-0.12129776
69	0x3e2924d6	0.16517958
70	0x3b6f3000	0.0036497116
71	0xbe377f70	-0.17919707
72	0xbe94e6ce	-0.2908234
73	0xbe664993	-0.22489004
74	0xbdafdeb6	-0.085874006
75	0xbdc5fd6b	-0.09667476
76	0x3dcc34c0	0.09970999
77	0xbe41c7a5	-0.18923815
78	0x3ea3320a	0.31874114
79	0x3dd4ee46	0.103970096
80	0xbe333d9b	-0.1750397
81	0x3db21eb6	0.08697264
82	0x3d8f2e00	0.06991196
83	0xbd0eabe0	-0.03483188
84	0xbc8db49f	-0.01729804
85	0x3da18231	0.0788616
86	0xbe9b77f3	-0.30364951
87	0xbc77b12b	-0.015117924
88	0xbe4d906b	-0.20074622
89	0x3e4b84f3	0.19874935
90	0x3da430a0	0.08017087
91	0xbe514726	-0.20437297
92	0x3e80fab3	0.25191268
93	0x3f7c515e	0.98561656
94	0xbe5922ea	-0.21204725
95	0x3c6e5a8a	0.014547953
96	0xbe0d237e	-0.1378307
97	0xba41e800	-0.00073969364
98	0x3e94c424	0.29055893
99	0xbe299ec3	-0.16564469
100	0xbd8642c0	-0.065557
101	0xbe5431f0	-0.20722175
102	0x3f7e2210	0.99270725
103	0x3e14021f	0.14453934
104	0x3d627504	0.055287376
105	0xbe4700e8	-0.1943394
106	0xbd24ebab	-0.040263813
107	0xbdc11590	-0.09427941
108	0x3dfa5f80	0.122252464
109	0xbe85e23a	-0.2614916
110	0xbdbea190	-0.09308159
111	0xbea2168d	-0.3165783
112	0xbd3efd3d	-0.046628226
113	0xbc1ff951	-0.0097640315
114	0xbde71690	-0.112836
115	0x3d0142f6	0.031558
116	0x3e35f1be	0.17767999
117	0x3e82f2db	0.2557591
118	0xbe967e73	-0.29393348
119	0xbe1ff34e	-0.15620157
120	0xbc506a9a	-0.012720728
121	0xbf98ec0e	-1.1947038
122	0xbd03c871	-0.032173578
123	0x3e89fc42	0.2695027
124	0x3e96ddb7	0.2946603
125	0xbdffd45b	-0.124916755
126	0xbe3d4d9b	-0.18486635
127	0x3cc430eb	0.023949107
128	0x3d966f06	0.07345395
129	0x3ee8324c	0.45350873
130	0xbc38a5b2	-0.011269974
131	0xbf5911df	-0.84792894
132	0x3e87b0e0	0.26502132
133	0xbe5923db	-0.21205084
134	0xbe6a4f38	-0.22881782
135	0x3e9f3b2b	0.3109983
136	0xbdaf93b6	-0.085730955
137	0x3e2e26cb	0.17006986
138	0xbe90e626	-0.2830059
139	0x3f09f427	0.5388817
140	0xbc76415c	-0.015030231
141	0xbe82c798	-0.25542903
142	0xbce28b96	-0.02765445
143	0x3e3c65de	0.18398234

conv1.bias f4 [16]
0	0xbf205e7e	-0.62644184
1	0x3ef06459	0.4695156
2	0x3ddf3605	0.10898975
3	0xbd684aab	-0.056711834
4	0x3ef1332f	0.47109362
5	0x38abb52f	8.1876635e-05
6	0xbeca1469	-0.39468697
7	0xbe210058	-0.15722787
8	0xbcc8770c	-0.024470828
9	0x3eb2f68b	0.34953722
10	0xbe94a0d1	-0.29028943
11	0xbec0c19d	-0.37647715
12	0x3ee2468f	0.44194457
13	0xbeed0494	-0.46292555
14	0xbf1cdcdd	-0.6127451
15	0xbc85478a	-0.016269464

conv2.weight f4 [32, 16, 3, 3]
0	0x3d47e5e8	0.04880324
1	0x3d815607	0.063152365
2	0xbd8d24ba	-0.06891771
3	0x3de46211	0.11151517
4	0x3e400466	0.18751678
5	0xbe5a2383	-0.21302609
6	0x3d9a808f	0.07544052
7	0xbc349e00	-0.011023998
8	0xbd475120	-0.04866135
9	0x3cc5f790	0.024165899
10	0xbd21dc26	-0.03951659
11	0x39a48956	0.0003138284
12	0x3f2a47f5	0.6651605
13	0xbf00b015	-0.5026868
14	0xbe3edd69	-0.18639149
15	0x3d98ebf3	0.07466879
16	0xbda4b608	-0.08042532
17	0x3d7854ab	0.06062762
18	0x3d867fe3	0.06567361
19	0xbcb389b6	-0.021916252
20	0x3d8a7eeb	0.06762489
21	0x3ef53631	0.47892907
22	0xbeb5d992	-0.35517555
23	0x3d38ebec	0.045146868
24	0x3d4fd4f6	0.050740205
25	0xbc484076	-0.0122224
26	0xbc714aa0	-0.014727265
27	0x3d891e0c	0.06695184
28	0xbcf03ffb	-0.029327383
29	0x3c665a76	0.0140596535
30	0xbb948140	-0.0045320094
31	0xbeb9ae70	-0.36265898
32	0x3d439ad1	0.047755066
33	0xbcc3904b	-0.023872515
34	0x3a8a7cab	0.0010565718
35	0x3cdf9000	0.027290344
36	0x3d78e598	0.060765833
37	0xbd8328a0	-0.06404233
38	0xbd957df6	-0.07299416
39	0x3f1739b0	0.590724
40	0x3e896adc	0.2683934
41	0xbd669915	-0.056298334
42	0xbda8f062	-0.082489744
43	0x3b9fda16	0.004878293
44	0x3d596790	0.05307728
45	0xbbc44ec0	-0.005990833
46	0x3cbb633b	0.022874465
47	0x3d6244e8	0.055241495
48	0x3e3265b2	0.17421606
49	0xbe1925e8	-0.14955866
50	0x3e79664c	0.2435543
51	0x3d0ec99e	0.034860246
52	0xbd2e4ad6	-0.042551838
53	0xba914656	-0.0011083584
54	0xbc561c2b	-0.013068239
55	0xbd842c76	-0.06453793
56	0xbc8a9c06	-0.0169201
57	0x3e429cc4	0.19005114
58	0xbed80d04	-0.4219743
59	0x3d27263c	0.040807948
60	0xbd381023	-0.044937264
61	0x3cc6b820	0.02425772
62	0x3ab7e9ab	0.001403143
63	0xbd7ea916	-0.06217297
64	0x3d4391d6	0.047746502
65	0x3a609756	0.00085674727
66	0x3d959e76	0.07305615
67	0xbe7aec0c	-0.24504107
68	0x3dff8733	0.12476959
69	0x3d948c6e	0.07253347
70	0xbac24b56	-0.0014823477
71	0x3c1529cb	0.0091042025
72	0x3d44ee93	0.048079085
73	0x3d2f8240	0.042848825
74	0xbbeb722b	-0.0071852407
75	0xbd16b02e	-0.03678911
76	0xbe139beb	-0.14414947
77	0x3ec0d89f	0.3766527
78	0xbd3ca50b	-0.046055835
79	0x3c250a6b	0.010073285
80	0xbc890c0b	-0.016729375
81	0x3d7abd76	0.06121584
82	0xbda5307b	-0.080658875
83	0xbcc64e1b	-0.024207165
84	0x3e9cc8db	0.3062199
85	0xbd896d38	-0.06710285
86	0x3d963299	0.073338695
87	0xb9a146ab	-0.00030760965
88	0x3cda4e9b	0.02664881
89	0xbcbd7e7b	-0.0231316
90	0x3d7e50d8	0.062088817
91	0x3d5de483	0.054173004
92	0xbda09fff	-0.07843017
93	0x3ec5a8e6	0.38605422
94	0x3bcddc7a	0.0062823864
95	0xbf2e1042	-0.6799356
96	0xbd90c9d2	-0.07069744
97	0x3d574c10	0.052562773
98	0x3b0901d6	0.0020905635
99	0x3d864c6a	0.065575436
100	0xbd8367f7	-0.06416314
101	0xbca8f540	-0.020624757
102	0xbea8d274	-0.32973063
103	0x3e877a69	0.2646058
104	0xbf6704b5	-0.9024156
105	0xbd669078	-0.05629012
106	0xba19be00	-0.0005864799
107	0xbbf7ea6b	-0.0075657866
108	0xbc24bda0	-0.010054976
109	0xbb485dab	-0.0030573409
110	0xbc653676	-0.013990035
111	0x3f059cf1	0.521926
112	0x3e7d7097	0.24749981
113	0x3eabcc89	0.33554485
114	0xbc0e5836	-0.008688023
115	0x3cf73050	0.030174404
116	0xbbe156c0	-0.0068767965
117	0x3d8f6e38	0.070034444
118	0x3c1368a0	0.0089971125
119	0xbd23a538	-0.039952487
120	0x3ea94fbd	0.33068648
121	0xbedc1ea1	-0.42992118
122	0x3e730cdc	0.23735374
123	0xbcf60540	-0.0300318
124	0xbd86b36f	-0.06577193
125	0x3d5096ae	0.05092495
126	0xbd9416a8	-0.07230884
127	0x3cbe09ab	0.02319797
128	0xbd9c8a62	-0.07643582
129	0x3f4399da	0.76406634
130	0x3d99309b	0.07479974
131	0xbf54dfc6	-0.8315395
132	0xbc2351ab	-0.009968202
133	0x3da1d1c3	0.07901337
134	0x3bb4aa80	0.0055134892
135	0xbd5465fe	-0.05185508
136	0x3ae6c000	0.0017604828
137	0xbc6d4f60	-0.0144842565
138	0xbe0fc8db	-0.14041464
139	0xbd7e0e44	-0.062025324
140	0x3da311ab	0.07962354
141	0x3d8ed013	0.06973281
142	0xbca83026	-0.020530771
143	0x3cbc3236	0.022973161
144	0xbd6d6933	-0.057961654
145	0x3d8e0b43	0.06935742
146	0xbc4d2d80	-0.012523055
147	0xbe8175bf	-0.25285146
148	0x3d617ab7	0.05504867
149	0xbe788956	-0.2427114
150	0x3cd798e0	0.026318014
151	0x3d6ad0e3	0.057328116
152	0x3da5f4d3	0.08103337
153	0xbd45582e	-0.048179798
154	0xbce56d36	-0.028006177
155	0xba28f200	-0.0006444752
156	0x3dba742f	0.091041915
157	0xbe11ba54	-0.14231235
158	0x3d9f49ce	0.07777749
159	0xbd948ece	-0.072538
160	0x3da763b0	0.08173311
161	0xbc8dc5fb	-0.017306319
162	0x3d852704	0.06501582
163	0xbcd72a40	-0.026265264
164	0x3cea2996	0.028584283
165	0x3d4656d9	0.048422668
166	0x3ce42f68	0.027854636
167	0x3defcd69	0.11709101
168	0x3d9d5042	0.076813236
169	0xbd9f9dfa	-0.077938035
170	0xbca430c0	-0.020042777
171	0x3d0c40d0	0.034241498
172	0xbd113530	-0.035451114
173	0x3d202be0	0.039104342
174	0x3ea2e3c2	0.3181439
175	0x3e1430b0	0.14471698
176	0x3e350a1a	0.17679635
177	0x3da67663	0.08128049
178	0x3da5f5cf	0.08103525
179	0xbd83bdac	-0.064326614
180	0x3cc4063b	0.023928752
181	0x3d2fba38	0.0429022
182	0x3bf678d6	0.007521729
183	0x3e56b5ee	0.20967838
184	0xbd90936c	-0.070593685
185	0x3e4d8982	0.20071986
186	0x3c203fe0	0.009780854
187	0x3c8c00fb	0.017090311
188	0xbcb3cfb6	-0.02194963
189	0xbcc71ec6	-0.024306666
190	0x3c95b6fb	0.018275728
191	0x3d6633d6	0.05620178
192	0x3d1f1883	0.038841736
193	0xbe2e6562	-0.17030862
194	0xbbcd5182	-0.00626582
195	0xbcf89a7b	-0.0303471
196	0xbc34900b	-0.011020671
197	0x3d3b3986	0.045709155
198	0x3da78c10	0.08181012
199	0xbd89236c	-0.06696209
200	0x3da76632	0.08173789
201	0xbf549199	-0.83034664
202	0xbe802513	-0.25028285
203	0x3ec9c6a0	0.3940935
204	0xbd85ae2a	-0.0652736
205	0xbd9c6eb4	-0.076383024
206	0x3d4c501e	0.049881093
207	0x3d764913	0.060128283
208	0xbd2fb103	-0.04289342
209	0x3bd374eb	0.0064531467
210	0x3e526486	0.20546159
211	0xbe4a935d	-0.19782777
212	0x3e76fcb1	0.24119832
213	0xbda23fa6	-0.07922296
214	0x3d89dda8	0.06731731
215	0xbd725360	-0.059161544
216	0x3ca14d3b	0.019690147
217	0x3d96fc44	0.073723346
218	0xbcaaffa6	-0.020873856
219	0x3eab3714	0.3344046
220	0x3d98cb12	0.074606076
221	0x3d2a4885	0.041573066
222	0x3da25ca7	0.07927828
223	0xbd7c49d3	-0.06159384
224	0xbd865660	-0.065594435
225	0xbc8b76db	-0.017024448
226	0x3c923266	0.017846297
227	0x3d880988	0.06642443
228	0x3ec48a0e	0.38386577
229	0x3e117e6b	0.14208381
230	0xbde2ce10	-0.110744596
231	0x3d6580e3	0.05603112
232	0x3cff560b	0.031168958
233	0x3d831b22	0.064016595
234	0x3bf2a800	0.007405281
235	0xbcdcfd7b	-0.026976338
236	0x3d70e5c3	0.058812868
237	0xbd1806a5	-0.03711571
238	0xbf8e7735	-1.1130129
239	0xbe01ac3d	-0.1266336
240	0x3d02e638	0.031957835
241	0x3cffded0	0.031234175
242	0xbbc8bf96	-0.0061263544
243	0x3cbdde80	0.023177385
244	0xbd229446	-0.039692186
245	0xbd98b1ff	-0.07455825
246	0x3cf7c181	0.030243637
247	0xbf30989a	-0.6898285
248	0x3dc143da	0.0943677
249	0xbc92da5b	-0.017926386
250	0x3ca969c6	0.02068032
251	0xbd322e66	-0.04350128
252	0x3da0cb7a	0.0785131
253	0xbc79794b	-0.015226672
254	0xbd51f768	-0.051261336
255	0x3ec2c868	0.38043523

conv2.bias f4 [32]
0	0x3d9a768e	0.07542144
1	0x3e837b52	0.25680023
2	0xbcd175f5	-0.025568942
3	0x3e8a3233	0.26991424
4	0x3f113d85	0.56734496
5	0xbd4742ef	-0.048647817
6	0x3d89d783	0.06730559
7	0x3de0d639	0.1097836
8	0xbea27516	-0.31729954
9	0x3e0395be	0.12850091
10	0xbd0631a1	-0.032762174
11	0xbd7e0a31	-0.062021438
12	0x3da55f85	0.080748595
13	0x3d34c8a6	0.044136666
14	0x3e399fff	0.1812744
15	0xbeb5899f	-0.3545656
16	0x3e030f2c	0.12798756
17	0xbd92f213	-0.07175078
18	0x3d699647	0.05702808
19	0xbe2fbdb2	-0.17162207
20	0x3e3629ef	0.17789434
21	0xbe166240	-0.14685917
22	0x3dfad977	0.122485094
23	0x3db948bc	0.09047076
24	0x3dcef354	0.10105005
25	0x3d76e528	0.060277134
26	0x3e36796b	0.17819755
27	0x3dced0f6	0.1009845
28	0x3dfa1df7	0.122127466
29	0x3d62f20b	0.05540661
30	0x3eeadedc	0.45873153
31	0x3bed01cd	0.0072328807

fc1.weight f4 [128, 160]
0	0x3efa96b5	0.48943105
1	0xbf3d869b	-0.74033517
2	0x3cd35b03	0.025800234
3	0xbdd51b50	-0.104056
4	0x3d9ea689	0.07746608
5	0x3eb3d542	0.3512364
6	0x3f303162	0.6882535
7	0xbebe46ff	-0.3716354
8	0xbd8f04b2	-0.069833174
9	0x3cf1af7e	0.029502627
10	0x3f2929ca	0.6607939
11	0x3df1eb84	0.11812499
12	0xbeec028b	-0.4609569
13	0x3e206e74	0.15667135
14	0xbdcd7a0c	-0.10033044
15	0x3e81b83c	0.25335872
16	0xbf32b015	-0.6979993
17	0xbd5eaae2	-0.054362185
18	0x3ddf303d	0.108978726
19	0x3e8c18c0	0.27362633
20	0x3e521560	0.20515966
21	0xbfd2c97d	-1.6467739
22	0x3d486e0f	0.048933085
23	0x3e0d539b	0.13801424
24	0xbc34c53f	-0.011033355
25	0xbdd34fc2	-0.10317947
26	0x3c0a561d	0.008443383
27	0x3e19d214	0.15021545
28	0xbdd3a9c0	-0.103351116
29	0xbd65dcb3	-0.05611868
30	0x3cd7017b	0.026245823
31	0x3e9289c4	0.28620732
32	0xbd5798a6	-0.05263581
33	0x3d95b993	0.07310786
34	0xbead1a51	-0.3380914
35	0x3cca8f8f	0.024726657
36	0x3d945ad5	0.07243887
37	0x3e131d05	0.14366539
38	0xbe4527d7	-0.19253479
39	0xbda1f5e8	-0.07908231
40	0x3c804266	0.015656661
41	0xc0893f4f	-4.288978
42	0x3dff4f2c	0.12466273
43	0x3dd940ef	0.10608088
44	0x3d1fd84e	0.039024644
45	0xbf301ef7	-0.6879725
46	0x3e003209	0.12519087
47	0x3dffac3f	0.12484025
48	0xbe367c43	-0.1782084
49	0xbf695ae7	-0.9115433
50	0x3ef632d3	0.4808565
51	0xbd9ff293	-0.07809939
52	0xbe041afa	-0.12900916
53	0x3df89af1	0.12138928
54	0x3e3e9736	0.1861237
55	0x3c155bec	0.009116154
56	0xba25c708	-0.00063239085
57	0xbd5da768	-0.05411473
58	0x3d2b8f18	0.04188451
59	0x3badb42f	0.0053010206
60	0x3d27d8a8	0.040978104
61	0x3cccc8b2	0.024998043
62	0xbd0aedc9	-0.033918176
63	0xbd88ddcc	-0.066829294
64	0x3d6752a3	0.056475293
65	0x3f42cb16	0.76091135
66	0xbe7bb00d	-0.24578877
67	0xbf11714b	-0.56813496
68	0xbd9cdaaa	-0.07658894
69	0x3dc896f3	0.09794416
70	0x3e63ac94	0.22233802
71	0x3f13b584	0.57698846
72	0xbf30a230	-0.6899748
73	0xbf0346c8	-0.5127988
74	0xbf58ca47	-0.8468365
75	0xc0a1dc6d	-5.0581574
76	0x3e3a8b02	0.1821709
77	0xbfb64459	-1.4239608
78	0xbe562ff7	-0.20916735
79	0x3db5b47c	0.08872315
80	0xbddfa522	-0.109201685
81	0x3ef82931	0.48468927
82	0xbe9c73af	-0.3055701
83	0xbd0eace8	-0.034832865
84	0xbe3a0d3e	-0.18169114
85	0xbcc20a25	-0.023686478
86	0x3d6b2fc3	0.057418596
87	0xbc52b6d5	-0.012860973
88	0xbc95d6d7	-0.01829092
89	0xbd4718e9	-0.04860774
90	0xbef068e1	-0.46955016
91	0xbe0b9e08	-0.13634503
92	0x3e5b7dcc	0.21434706
93	0xbb59405d	-0.0033149936
94	0x3dee2a18	0.116291225
95	0xbd5f4302	-0.054507263
96	0xbdade852	-0.08491577
97	0xbb65709d	-0.003500975
98	0x3de8656e	0.11347471
99	0xbd7185fa	-0.05896566
100	0x3dcfbcf9	0.101434655
101	0x3e686bdd	0.22697397
102	0xbe6eb58e	-0.23311445
103	0x3e402a5f	0.18766163
104	0xbda3346e	-0.079689845
105	0xbed241dc	-0.41065872
106	0x3d1fc10d	0.039002467
107	0xbeab8ce0	-0.33505917
108	0xbd3f1323	-0.04664911
109	0xbebfedf7	-0.3748624
110	0xbd6b9538	-0.057515353
111	0x3e55267f	0.20815466
112	0xbec853df	-0.3912649
113	0x3e5d0a97	0.21586071
114	0xbd2e4618	-0.042547315
115	0x3ebb29e7	0.36555406
116	0x3e8c7bd5	0.27438226
117	0x3de1894b	0.11012515
118	0xbdb5d690	-0.08878815
119	0xbd2c9abf	-0.042139765
120	0x3f3f5f6a	0.74754965
121	0xbf47119a	-0.7776123
122	0xbe9fd97c	-0.31220615
123	0x3cc5ae41	0.024130942
124	0xbdb3a473	-0.087716006
125	0x3e3bcbee	0.18339512
126	0xbe7d2af4	-0.24723417
127	0xbece1830	-0.4025283
128	0x3f025a7f	0.50919336
129	0x3cb871ff	0.022515295
130	0x3e2f56dd	0.1712298
131	0xbc808f21	-0.01569325
132	0xbe9f53bc	-0.31118572
133	0xbebbe821	-0.36700538
134	0xbe81e1e8	-0.25367665
135	0x3de42ba2	0.11141135
136	0xbb69bd64	-0.0035665864
137	0x3e3543f2	0.177017
138	0xbe2a14e3	-0.1660953
139	0xbd63d910	-0.05562693
140	0x3e534d20	0.2063489
141	0xbe71631b	-0.23572962
142	0xbe46f28e	-0.19428465
143	0x3e116a31	0.14200665
144	0xbd9abf07	-0.07555967
145	0x3d99aa20	0.07503152
146	0xbd0ba57a	-0.034093358
147	0x3cd34b8c	0.02579286
148	0x3d951ac2	0.07280494
149	0x3b4639bf	0.0030246822
150	0x3ed92d70	0.4241748
151	0x3f5c6fc3	0.86108035
152	0xc06008b5	-3.5005314
153	0x3e302333	0.17200927
154	0x3da4d1dd	0.08047841
155	0x3d2f6515	0.04282101
156	0xbea66939	-0.32502154
157	0xbc0f31e3	-0.008739921
158	0x3e173fe8	0.14770472
159	0xbc0dfe6a	-0.008666614
160	0x3d3df045	0.046371717
161	0x3d71a34f	0.058993634
162	0xbdb92b48	-0.09041458
163	0xbd97390d	-0.073839284
164	0xbe0dbd4a	-0.1384174
165	0xbd9ec939	-0.07753224
166	0xbd25b120	-0.040452123
167	0xbd88b45d	-0.066750266
168	0xbdfde909	-0.123979636
169	0xbd9fa50d	-0.07795153
170	0xbda6188d	-0.081101514
171	0x3ad0bfda	0.0015926317
172	0x3caf631d	0.021409566
173	0xbd93266e	-0.07185064
174	0xbdf02f5c	-0.11727783
175	0xbd61d85c	-0.055137977
176	0x3d3e6c94	0.046490267
177	0x3c613ba9	0.013747134
178	0xbe474edf	-0.1946368
179	0xbe24a419	-0.16078223
180	0xbdc90ee1	-0.09817291
181	0x3dc450de	0.09585737
182	0x3d0b49f6	0.03400608
183	0xbe11eb82	-0.14249995
184	0xbdfdc096	-0.123902485
185	0xbc19e3ff	-0.009392737
186	0xbd66c52d	-0.056340385
187	0x3c9e5982	0.01932979
188	0x3d1c71f0	0.038194597
189	0xbd956c44	-0.07296041
190	0xbd991543	-0.074747585
191	0xbd060078	-0.03271529
192	0xbda36b0f	-0.07979404
193	0x3d0f760a	0.03502468
194	0xbde07670	-0.1096009
195	0xbe2732d8	-0.16327989
196	0xbdd607c4	-0.104507
197	0xbe43a6b0	-0.19106555
198	0x3d1fdece	0.039030842
199	0xbdcab30b	-0.09897431
200	0xbe156623	-0.14589743
201	0xbde3cf9e	-0.11123584
202	0xbde917b2	-0.11381473
203	0xb9dca882	-0.00042087218
204	0xbd0a3f1e	-0.0337516
205	0xbd461590	-0.048360407
206	0xbd827d39	-0.063715406
207	0xbe3551bd	-0.17706962
208	0x3d9f6caf	0.077844016
209	0x3c11a4fe	0.008889435
210	0xbd95d8c0	-0.073167324
211	0x3da3c422	0.07996394
212	0xbd629bed	-0.055324484
213	0x3d0ccfb1	0.034377757
214	0xbdf14ec2	-0.117826
215	0x3b7f0603	0.0038913495
216	0x3c8420f2	0.01612899
217	0x3d80cb1b	0.06288739
218	0xbd872c97	-0.06600302
219	0xbbf233a6	-0.007391411
220	0xbd69f062	-0.057114013
221	0xbc8a234c	-0.016862534
222	0x3c410dba	0.011783058
223	0xbd889d39	-0.06670613
224	0xbd917609	-0.071025915
225	0x3d0a4978	0.03376147
226	0xbddb73d6	-0.10715453
227	0xbde68fb8	-0.11257881
228	0xbde0f93e	-0.10985039
229	0xbd8e303d	-0.069427945
230	0xbe1b75be	-0.15181634
231	0xbd55686c	-0.052101538
232	0xbca9e457	-0.020738764
233	0xbdcf44b9	-0.1012053
234	0xbc03ceef	-0.008044942
235	0xbe0ff4fa	-0.14058295
236	0x3d9a64a8	0.0753873
237	0x3b53e0ed	0.003233011
238	0x3c9cc151	0.01913515
239	0xbb512bb5	-0.003191692
240	0xbdbe32ec	-0.09287056
241	0xbdb2d2b7	-0.08731597
242	0xbe0f3087	-0.13983355
243	0xbd1d5393	-0.03840978
244	0xbdacb4da	-0.08432932
245	0x3cd55c20	0.026044905
246	0xbccc2fa4	-0.02492506
247	0xbd9a24f0	-0.075265765
248	0xbbb7658c	-0.005596822
249	0xbd1fd8a5	-0.039024968
250	0xbd36c8a5	-0.044624943
251	0xbe0290df	-0.12750576
252	0xbde6552a	-0.112467125
253	0x3b4901d1	0.0030671249
254	0xbd8bf1c9	-0.06833226
255	0x3b935139	0.0044957665

fc1.bias f4 [128]
0	0x3df57610	0.11985409
1	0xbc90d8b0	-0.01768145
2	0xbd9c3e00	-0.07629013
3	0x3e4196f0	0.18905234
4	0xbdd8ec6a	-0.105919674
5	0xbe0ed5cb	-0.13948743
6	0xbda5ad1a	-0.08089657
7	0xbcaacb75	-0.020848969
8	0xbde325d9	-0.11091203
9	0xbe9d49c9	-0.30720356
10	0x3e029f84	0.12756163
11	0x3e044c39	0.12919702
12	0xbdba8270	-0.0910691
13	0x3c364bbe	0.011126457
14	0x3c26ae9e	0.010173468
15	0x3e16f73d	0.14742751
16	0xbd991590	-0.07474816
17	0xbd89613f	-0.06708001
18	0x3ef8ca9f	0.48592088
19	0x3df96b66	0.12178688
20	0x3e5b633c	0.21424574
21	0x3efa04c2	0.48831755
22	0x3e159249	0.14606585
23	0x3dd76bdf	0.10518622
24	0x3e44d39e	0.1922135
25	0xbd8fdd4e	-0.070246324
26	0x3e5522aa	0.20814005
27	0xbd181e75	-0.03713842
28	0x3e174591	0.14772631
29	0xbde14f34	-0.11001435
30	0xbd26b168	-0.04069653
31	0xbd34b7f7	-0.044120755
32	0x3eb00926	0.3438198
33	0xbeb2d313	-0.34926662
34	0x3e24fa67	0.16111146
35	0x3dd7a2bf	0.10529088
36	0x3d5e22cd	0.054232407
37	0x3e67d169	0.22638477
38	0xbdf69c8d	-0.120415784
39	0xbd781afe	-0.060572617
40	0xbbc60d65	-0.006044077
41	0x3d44d304	0.048052803
42	0xbe0f0eda	-0.13970509
43	0xbc532f7c	-0.012889739
44	0xbd5410f4	-0.05177398
45	0x3e488fd1	0.19586112
46	0x3ee7c4df	0.45267388
47	0x3cbf0ee9	0.02332254
48	0xbda77403	-0.08176424
49	0xbd0e0da1	-0.034680966
50	0xbdcd3b63	-0.10021093
51	0x3e1ad649	0.15120806
52	0xbd1ef62b	-0.038808983
53	0x3ed06cce	0.4070801
54	0x3e1b1eff	0.15148543
55	0xbd5efaae	-0.054438286
56	0x3e5a41b1	0.21314122
57	0x3dd4c387	0.103888564
58	0xbe04450a	-0.12916961
59	0xbe52804b	-0.20556752
60	0xbcc9151e	-0.024546202
61	0x3e1d6a40	0.15372562
62	0xbd50f42f	-0.05101412
63	0xbd93689b	-0.07197686
64	0xbdcb4bff	-0.099266045
65	0x3dd2fcca	0.10302122
66	0x3ef23d30	0.47312307
67	0xbddf2128	-0.10894996
68	0x3de8887d	0.11354158
69	0xbdc50d6a	-0.09621699
70	0xbcc5a88e	-0.024128225
71	0xb9b3ab0c	-0.0003426898
72	0x3d723396	0.059131227
73	0xbdc9b1e0	-0.0984838
74	0xbdf4f6a9	-0.11961109
75	0x3e38b0cc	0.18036193
76	0xbde1152c	-0.10990366
77	0xbdd6338f	-0.10459053
78	0xbdb8e2c3	-0.09027626
79	0xbe178825	-0.14798029
80	0x3e173744	0.14767176
81	0xbdedd732	-0.11613311
82	0xbdff4e5e	-0.12466119
83	0x3e10b642	0.14132026
84	0x3ef8306c	0.48474443
85	0xbe12bddb	-0.14330237
86	0x3f029004	0.51001
87	0xbe0b5cfe	-0.13609692
88	0x3dd8df55	0.10589472
89	0xbdfd8c6a	-0.123802975
90	0xbdb4e2be	-0.0883231
91	0xbd86fe93	-0.06591525
92	0xbc26299a	-0.0101417545
93	0x3e1b0ded	0.15142031
94	0xbc83eacd	-0.016103173
95	0x3e10d4fc	0.14143747
96	0x3de37932	0.111071005
97	0x3e06a82c	0.1315009
98	0x3e247bec	0.16062897
99	0x3e21206b	0.15735023
100	0x3cdbac6a	0.026815612
101	0xbe87a2e5	-0.26491466
102	0xbe29e3ac	-0.16590756
103	0xbdd9b922	-0.106310144
104	0xbe12f7cc	-0.1435234
105	0x3e550ee9	0.20806469
106	0xbd007c0b	-0.031368297
107	0x3d2329b0	0.03983468
108	0x3e8017da	0.25018197
109	0xbe442ecb	-0.19158475
110	0xbd814ecf	-0.0631386
111	0xbd9da547	-0.0769754
112	0x3dde2d90	0.10848534
113	0xbd3371c9	-0.043809686
114	0xbdba43f7	-0.090949945
115	0x3e52c7de	0.20584056
116	0xbc91671e	-0.017749365
117	0x3d3ea911	0.046547953
118	0x3dfd7f53	0.12377801
119	0x3e156b6d	0.14591761
120	0xbea80f67	-0.3282425
121	0x3dcc1195	0.09964291
122	0xbd8c8d89	-0.06862933
123	0xbde9e6c1	-0.11420966
124	0x3be333dd	0.006933673
125	0x3e34543a	0.17610255
126	0xbd3e5381	-0.046466354
127	0x3f03e903	0.5152742

fc2.weight f4 [1, 128]
0	0x3fba1d10	1.4540119
1	0xbb8f0839	-0.004364994
2	0x3c837740	0.016048074
3	0x3fca0789	1.578355
4	0x3c84580e	0.016155269
5	0x3b833deb	0.004005184
6	0x3d2aa0fe	0.04165744
7	0xbd5f37f7	-0.05449673
8	0xbc089de0	-0.008338422
9	0x3ec24b29	0.37947968
10	0x3fc06ac6	1.5032585
11	0x3f726ef8	0.94700575
12	0x3bda92ab	0.006670316
13	0xbccea207	-0.025223745
14	0x3b7a1269	0.0038157946
15	0x3fc6551c	1.5494723
16	0x3d82ce1c	0.063869685
17	0x3c555c04	0.0130224265
18	0x3e3141df	0.17310284
19	0x3fe00c62	1.7503779
20	0x3fa73efb	1.3066095
21	0x3e3119e3	0.17295031
22	0x3fc96b49	1.5735866
23	0x3fd2ffe8	1.6484346
24	0x3fc7b8e2	1.5603297
25	0xbd49d49f	-0.049275037
26	0x3fc1f79d	1.515369
27	0x3c9808d8	0.018558905
28	0x3fd47f09	1.6601268
29	0xbe7935d4	-0.2433694
30	0x3d261030	0.04054278
31	0xbc0ddbbc	-0.008658346
32	0x3e3e51ce	0.18585894
33	0xbeb1efbe	-0.3475322
34	0x3fbb3e9e	1.4628484
35	0x3fd0a18d	1.6299301
36	0xbd1818ae	-0.03713291
37	0x3fc4c92a	1.537389
38	0xbf54cdad	-0.83126336
39	0xbbe6c6a5	-0.0070427232
40	0xbc6d4d25	-0.014483725
41	0xbd44bd07	-0.048031833
42	0x3cb49ec4	0.022048362
43	0xbd4eda88	-0.050501376
44	0x3bc90a32	0.0061352486
45	0x3fe7449c	1.8067813
46	0x3e613040	0.21991062
47	0x3ccc7a48	0.024960652
48	0xbf98e33f	-1.194435
49	0xbd260fdf	-0.04054248
50	0xbc205a7f	-0.009787201
51	0x3fae0875	1.3596331
52	0xbf95aac4	-1.1692739
53	0x3df3f2df	0.11911558
54	0x3f88e439	1.0694648
55	0xbd41ce63	-0.047315966
56	0x3fd1993a	1.6374886
57	0x3f99dbc8	1.2020197
58	0x3cdfd0d8	0.027321264
59	0xbe148a6e	-0.14505932
60	0xbcd7f091	-0.026359828
61	0x3fc4a621	1.5363199
62	0xbb513202	-0.0031920676
63	0x3c96ea99	0.018422412
64	0x3cab2387	0.020890964
65	0x3fd27121	1.6440774
66	0x3e09bfa7	0.13452016
67	0xbc1fd0e9	-0.009754398
68	0x3fd44f68	1.6586733
69	0x3c4ad736	0.012380412
70	0x3c1c0616	0.009522935
71	0x3ca31aae	0.019910183
72	0x3fc7e78b	1.5617536
73	0xbd04fd29	-0.032467995
74	0x3cf6e850	0.030140072
75	0x3fb71ede	1.4306295
76	0x3b33e02d	0.0027446852
77	0x3c5975fa	0.013272757
78	0xbc9bb923	-0.019009179
79	0xbcff1170	-0.031136245
80	0x3ff286d0	1.8947392
81	0x3b8507ac	0.0040597524
82	0x3f3edb27	0.7455315
83	0x3fdfe7b6	1.7492588
84	0x3e631ff4	0.22180158
85	0xbc5b4969	-0.013384202
86	0x3e3790d3	0.1792634
87	0x3f1b78b9	0.60731083
88	0x3f9509fc	1.1643672
89	0xbd0aac6d	-0.033855844
90	0xbb113e8a	-0.002216252
91	0x3c8efdce	0.017455008
92	0x3ca8502c	0.020546041
93	0x3f0bfa2c	0.54678607
94	0x398bd766	0.0002667263
95	0x3fff282f	1.9934138
96	0x3f93934d	1.1529328
97	0xbf9fa4e9	-1.2472202
98	0x3fcf480f	1.6193866
99	0x3fdb6f48	1.7143335
100	0xbc9cc009	-0.019134538
101	0xbf1c113d	-0.60963804
102	0xbf8dcd0d	-1.1078202
103	0xbc9191eb	-0.017769774
104	0xbd8270cb	-0.0636917
105	0x3fc6d5f9	1.5534049
106	0xbd006a55	-0.031351406
107	0xbf8a01e1	-1.0781823
108	0x3e7f81d5	0.2495187
109	0xbfa5ee55	-1.2963358
110	0x3b052095	0.002031361
111	0x3c992cdf	0.018698154
112	0x3fb95f0b	1.448213
113	0xbd41acb7	-0.047283854
114	0x3c8bfcd9	0.01708834
115	0x3fbc6d3a	1.4720833
116	0xbcdcd1bd	-0.02695548
117	0xbcc21e9e	-0.02369624
118	0x3fc3ded7	1.530238
119	0x3fb49bd0	1.411005
120	0xbe84486a	-0.25836498
121	0x3f80f6ed	1.0075356
122	0x3d0df6e2	0.034659274
123	0x3f288e0c	0.65841746
124	0xbcbae9c8	-0.022816554
125	0x3fca20b2	1.5791228
126	0xbcadf5c1	-0.021235349
127	0x3e5d10b2	0.215884
